{"config": [{"config": {"batch_input_shape": [null, null, 108], "activation": "linear", "bias_regularizer": null, "kernel_regularizer": null, "kernel_constraint": null, "padding": "same", "dilation_rate": [1], "filters": 128, "kernel_initializer": {"config": {"scale": 1.0, "mode": "fan_avg", "seed": null, "distribution": "uniform"}, "class_name": "VarianceScaling"}, "activity_regularizer": null, "strides": [1], "trainable": true, "name": "conv1d_1", "bias_constraint": null, "kernel_size": [7], "bias_initializer": {"config": {}, "class_name": "Zeros"}, "dtype": "float32", "use_bias": true}, "class_name": "Conv1D"}, {"config": {"moving_variance_initializer": {"config": {}, "class_name": "Ones"}, "gamma_constraint": null, "gamma_regularizer": null, "scale": true, "beta_regularizer": null, "axis": -1, "moving_mean_initializer": {"config": {}, "class_name": "Zeros"}, "beta_initializer": {"config": {}, "class_name": "Zeros"}, "trainable": true, "name": "batch_normalization_1", "center": true, "gamma_initializer": {"config": {}, "class_name": "Ones"}, "epsilon": 0.001, "momentum": 0.99, "beta_constraint": null}, "class_name": "BatchNormalization"}, {"config": {"activation": "linear", "kernel_regularizer": null, "kernel_constraint": null, "padding": "same", "dilation_rate": [1], "filters": 256, "kernel_initializer": {"config": {"scale": 1.0, "mode": "fan_avg", "seed": null, "distribution": "uniform"}, "class_name": "VarianceScaling"}, "activity_regularizer": null, "strides": [1], "trainable": true, "name": "conv1d_2", "bias_constraint": null, "bias_regularizer": null, "bias_initializer": {"config": {}, "class_name": "Zeros"}, "kernel_size": [5], "use_bias": true}, "class_name": "Conv1D"}, {"config": {"moving_variance_initializer": {"config": {}, "class_name": "Ones"}, "gamma_constraint": null, "gamma_regularizer": null, "scale": true, "beta_regularizer": null, "axis": -1, "moving_mean_initializer": {"config": {}, "class_name": "Zeros"}, "beta_initializer": {"config": {}, "class_name": "Zeros"}, "trainable": true, "name": "batch_normalization_2", "center": true, "gamma_initializer": {"config": {}, "class_name": "Ones"}, "epsilon": 0.001, "momentum": 0.99, "beta_constraint": null}, "class_name": "BatchNormalization"}, {"config": {"activation": "linear", "kernel_regularizer": null, "kernel_constraint": null, "padding": "same", "dilation_rate": [1], "filters": 256, "kernel_initializer": {"config": {"scale": 1.0, "mode": "fan_avg", "seed": null, "distribution": "uniform"}, "class_name": "VarianceScaling"}, "activity_regularizer": null, "strides": [1], "trainable": true, "name": "conv1d_3", "bias_constraint": null, "bias_regularizer": null, "bias_initializer": {"config": {}, "class_name": "Zeros"}, "kernel_size": [5], "use_bias": true}, "class_name": "Conv1D"}, {"config": {"moving_variance_initializer": {"config": {}, "class_name": "Ones"}, "gamma_constraint": null, "gamma_regularizer": null, "scale": true, "beta_regularizer": null, "axis": -1, "moving_mean_initializer": {"config": {}, "class_name": "Zeros"}, "beta_initializer": {"config": {}, "class_name": "Zeros"}, "trainable": true, "name": "batch_normalization_3", "center": true, "gamma_initializer": {"config": {}, "class_name": "Ones"}, "epsilon": 0.001, "momentum": 0.99, "beta_constraint": null}, "class_name": "BatchNormalization"}, {"config": {"merge_mode": "concat", "trainable": true, "layer": {"config": {"unroll": false, "kernel_constraint": null, "return_state": false, "activity_regularizer": null, "stateful": false, "go_backwards": false, "recurrent_regularizer": null, "trainable": true, "units": 128, "bias_constraint": null, "recurrent_initializer": {"config": {"gain": 1.0, "seed": null}, "class_name": "Orthogonal"}, "return_sequences": true, "use_bias": true, "recurrent_activation": "hard_sigmoid", "kernel_regularizer": null, "dropout": 0.2, "activation": "tanh", "kernel_initializer": {"config": {"scale": 1.0, "mode": "fan_avg", "seed": null, "distribution": "uniform"}, "class_name": "VarianceScaling"}, "recurrent_dropout": 0.0, "name": "gru_1", "implementation": 0, "bias_regularizer": null, "bias_initializer": {"config": {}, "class_name": "Zeros"}, "recurrent_constraint": null}, "class_name": "GRU"}, "name": "bidirectional_1"}, "class_name": "Bidirectional"}, {"config": {"merge_mode": "concat", "trainable": true, "layer": {"config": {"unroll": false, "kernel_constraint": null, "return_state": false, "activity_regularizer": null, "stateful": false, "go_backwards": false, "recurrent_regularizer": null, "trainable": true, "units": 128, "bias_constraint": null, "recurrent_initializer": {"config": {"gain": 1.0, "seed": null}, "class_name": "Orthogonal"}, "return_sequences": true, "use_bias": true, "recurrent_activation": "hard_sigmoid", "kernel_regularizer": null, "dropout": 0.2, "activation": "tanh", "kernel_initializer": {"config": {"scale": 1.0, "mode": "fan_avg", "seed": null, "distribution": "uniform"}, "class_name": "VarianceScaling"}, "recurrent_dropout": 0.0, "name": "gru_2", "implementation": 0, "bias_regularizer": null, "bias_initializer": {"config": {}, "class_name": "Zeros"}, "recurrent_constraint": null}, "class_name": "GRU"}, "name": "bidirectional_2"}, "class_name": "Bidirectional"}, {"config": {"merge_mode": "concat", "trainable": true, "layer": {"config": {"unroll": false, "kernel_constraint": null, "return_state": false, "activity_regularizer": null, "stateful": false, "go_backwards": false, "recurrent_regularizer": null, "trainable": true, "units": 128, "bias_constraint": null, "recurrent_initializer": {"config": {"gain": 1.0, "seed": null}, "class_name": "Orthogonal"}, "return_sequences": true, "use_bias": true, "recurrent_activation": "hard_sigmoid", "kernel_regularizer": null, "dropout": 0.2, "activation": "tanh", "kernel_initializer": {"config": {"scale": 1.0, "mode": "fan_avg", "seed": null, "distribution": "uniform"}, "class_name": "VarianceScaling"}, "recurrent_dropout": 0.0, "name": "gru_3", "implementation": 0, "bias_regularizer": null, "bias_initializer": {"config": {}, "class_name": "Zeros"}, "recurrent_constraint": null}, "class_name": "GRU"}, "name": "bidirectional_3"}, "class_name": "Bidirectional"}, {"config": {"merge_mode": "concat", "trainable": true, "layer": {"config": {"unroll": false, "kernel_constraint": null, "return_state": false, "activity_regularizer": null, "stateful": false, "go_backwards": false, "recurrent_regularizer": null, "trainable": true, "units": 128, "bias_constraint": null, "recurrent_initializer": {"config": {"gain": 1.0, "seed": null}, "class_name": "Orthogonal"}, "return_sequences": true, "use_bias": true, "recurrent_activation": "hard_sigmoid", "kernel_regularizer": null, "dropout": 0.2, "activation": "tanh", "kernel_initializer": {"config": {"scale": 1.0, "mode": "fan_avg", "seed": null, "distribution": "uniform"}, "class_name": "VarianceScaling"}, "recurrent_dropout": 0.0, "name": "gru_4", "implementation": 0, "bias_regularizer": null, "bias_initializer": {"config": {}, "class_name": "Zeros"}, "recurrent_constraint": null}, "class_name": "GRU"}, "name": "bidirectional_4"}, "class_name": "Bidirectional"}, {"config": {"merge_mode": "concat", "trainable": true, "layer": {"config": {"unroll": false, "kernel_constraint": null, "return_state": false, "activity_regularizer": null, "stateful": false, "go_backwards": false, "recurrent_regularizer": null, "trainable": true, "units": 128, "bias_constraint": null, "recurrent_initializer": {"config": {"gain": 1.0, "seed": null}, "class_name": "Orthogonal"}, "return_sequences": true, "use_bias": true, "recurrent_activation": "hard_sigmoid", "kernel_regularizer": null, "dropout": 0.2, "activation": "tanh", "kernel_initializer": {"config": {"scale": 1.0, "mode": "fan_avg", "seed": null, "distribution": "uniform"}, "class_name": "VarianceScaling"}, "recurrent_dropout": 0.0, "name": "gru_5", "implementation": 0, "bias_regularizer": null, "bias_initializer": {"config": {}, "class_name": "Zeros"}, "recurrent_constraint": null}, "class_name": "GRU"}, "name": "bidirectional_5"}, "class_name": "Bidirectional"}, {"config": {"layer": {"config": {"kernel_regularizer": null, "units": 256, "kernel_constraint": null, "kernel_initializer": {"config": {"scale": 1.0, "mode": "fan_avg", "seed": null, "distribution": "uniform"}, "class_name": "VarianceScaling"}, "activity_regularizer": null, "trainable": true, "name": "dense_1", "bias_constraint": null, "use_bias": true, "bias_regularizer": null, "bias_initializer": {"config": {}, "class_name": "Zeros"}, "activation": "relu"}, "class_name": "Dense"}, "trainable": true, "name": "time_distributed_1"}, "class_name": "TimeDistributed"}, {"config": {"layer": {"config": {"rate": 0.2, "trainable": true, "name": "dropout_1"}, "class_name": "Dropout"}, "trainable": true, "name": "time_distributed_2"}, "class_name": "TimeDistributed"}, {"config": {"layer": {"config": {"kernel_regularizer": null, "units": 256, "kernel_constraint": null, "kernel_initializer": {"config": {"scale": 1.0, "mode": "fan_avg", "seed": null, "distribution": "uniform"}, "class_name": "VarianceScaling"}, "activity_regularizer": null, "trainable": true, "name": "dense_2", "bias_constraint": null, "use_bias": true, "bias_regularizer": null, "bias_initializer": {"config": {}, "class_name": "Zeros"}, "activation": "relu"}, "class_name": "Dense"}, "trainable": true, "name": "time_distributed_3"}, "class_name": "TimeDistributed"}, {"config": {"layer": {"config": {"rate": 0.2, "trainable": true, "name": "dropout_2"}, "class_name": "Dropout"}, "trainable": true, "name": "time_distributed_4"}, "class_name": "TimeDistributed"}, {"config": {"layer": {"config": {"kernel_regularizer": null, "units": 128, "kernel_constraint": null, "kernel_initializer": {"config": {"scale": 1.0, "mode": "fan_avg", "seed": null, "distribution": "uniform"}, "class_name": "VarianceScaling"}, "activity_regularizer": null, "trainable": true, "name": "dense_3", "bias_constraint": null, "use_bias": true, "bias_regularizer": null, "bias_initializer": {"config": {}, "class_name": "Zeros"}, "activation": "relu"}, "class_name": "Dense"}, "trainable": true, "name": "time_distributed_5"}, "class_name": "TimeDistributed"}, {"config": {"layer": {"config": {"rate": 0.2, "trainable": true, "name": "dropout_3"}, "class_name": "Dropout"}, "trainable": true, "name": "time_distributed_6"}, "class_name": "TimeDistributed"}, {"config": {"layer": {"config": {"kernel_regularizer": null, "units": 48, "kernel_constraint": null, "kernel_initializer": {"config": {"scale": 1.0, "mode": "fan_avg", "seed": null, "distribution": "uniform"}, "class_name": "VarianceScaling"}, "activity_regularizer": null, "trainable": true, "name": "dense_4", "bias_constraint": null, "use_bias": true, "bias_regularizer": null, "bias_initializer": {"config": {}, "class_name": "Zeros"}, "activation": "softmax"}, "class_name": "Dense"}, "trainable": true, "name": "time_distributed_7"}, "class_name": "TimeDistributed"}], "backend": "tensorflow", "keras_version": "2.0.8", "class_name": "Sequential"}